model.pth (torch, 16924 bytes, 9 tensors)

conv1.fc_neigh.weight f4 [16, 72]
0	0xbea47f15	-0.32128206
1	0xbeb0ee56	-0.34556836
2	0xbe862495	-0.26199785
3	0xbec5e03a	-0.38647634
4	0xbe08489e	-0.13308951
5	0xbdad58c0	-0.08464193
6	0x3d310593	0.043218207
7	0xbe339bcd	-0.17539902
8	0xbe12d8c4	-0.14340502
9	0x3e748da5	0.23882158
10	0xbcb3de12	-0.021956477
11	0xbced170c	-0.028941654
12	0xbed4d9b2	-0.41572338
13	0x3e896b19	0.26839522
14	0xbeb18596	-0.3467223
15	0x3dc68a57	0.09694355
16	0xbd1bebe3	-0.038066756
17	0xbdc8a0c5	-0.09796289
18	0xbe8e93c7	-0.2784712
19	0xbec5bc1a	-0.38620073
20	0xbea95947	-0.33075926
21	0x3e188c64	0.14897305
22	0x3d62c766	0.055365942
23	0xbd615929	-0.05501667
24	0xbea5b143	-0.32361802
25	0x3cdf4842	0.027256135
26	0xbcd105cf	-0.025515465
27	0x3d98abc1	0.074546345
28	0xbe14f585	-0.14546783
29	0x3d6aa6c7	0.057287958
30	0xbeadfab2	-0.33980328
31	0xbd8744f2	-0.06604947
32	0xbe0fdc13	-0.14048795
33	0x3deeec95	0.11666218
34	0x3d8f1c1d	0.06987784
35	0xbe1fbc78	-0.15599239
36	0x3e935da1	0.2878237
37	0xbee31b44	-0.4435674
38	0xbe14c4a8	-0.14528143
39	0xbe5b5f3f	-0.21423052
40	0x3db71245	0.089390315
41	0x3e9d3597	0.30704948
42	0xbea750e4	-0.32678902
43	0xbe8fab5f	-0.28060433
44	0xbea04654	-0.31303656
45	0x3df940d1	0.12170566
46	0xbe640ec9	-0.22271265
47	0xbc38708b	-0.011257301
48	0x3e88ad1e	0.26694578
49	0x3e87647b	0.26443848
50	0xbe89b9c5	-0.26899543
51	0xbe14f7f1	-0.14547707
52	0x3e1d7d81	0.15379907
53	0xbea1074d	-0.31450883
54	0xbe6f0dee	-0.23345158
55	0xbe99cfa1	-0.3004122
56	0xbdc6c4ac	-0.09705481
57	0x3e812c9e	0.25229353
58	0xbeafc81b	-0.34332356
59	0x3e3c2e6b	0.18377082
60	0xbeb18d18	-0.34677958
61	0xbaa6cbb5	-0.0012725504
62	0xbd8988ea	-0.067155674
63	0x3c7dd468	0.015492536
64	0xbe059143	-0.13043694
65	0xbde7164e	-0.11283551
66	0xbdb269e8	-0.08711606
67	0xbe95cd96	-0.29258412
68	0xbe96abeb	-0.29428038
69	0xbeaa902a	-0.33313113
70	0xbe086297	-0.13318859
71	0xbea7c144	-0.32764637
72	0xbe00706e	-0.12542889
73	0xbf0b79af	-0.5448255
74	0xbea18955	-0.3155009
75	0xbf0d7372	-0.5525428
76	0xbf003532	-0.5008117
77	0xbdb04c94	-0.08608356
78	0xbf1fd95e	-0.6244105
79	0xbf0d0e29	-0.5509973
80	0xbe9c0194	-0.30469954
81	0xbe8b96c1	-0.27263454
82	0x3d2d5752	0.042319603
83	0xbe457385	-0.19282348
84	0xbe79da1e	-0.24399611
85	0xbf1b1133	-0.6057312
86	0xbeac7b07	-0.33687612
87	0x3e88303a	0.26599294
88	0xbf003a15	-0.50088626
89	0xbdaa987d	-0.08329866
90	0x3e4183fa	0.18898001
91	0x3dd77e3e	0.10522126
92	0xbf0da64e	-0.55331886
93	0x3debb941	0.11509944
94	0xbe1a2472	-0.15052965
95	0xbe4b72e8	-0.19868052
96	0xbe343c0d	-0.17601033
97	0x3e6a3182	0.22870448
98	0xbeed5cd7	-0.46359894
99	0x3ea4a8e6	0.3216011
100	0xbec6c272	-0.38820225
101	0x3df2951a	0.11844845
102	0xbe8ce38a	-0.2751735
103	0xbedffd6f	-0.43748042
104	0xbf111211	-0.5666819
105	0x3e26c33d	0.16285415
106	0x3e9b835c	0.30373657
107	0x3f05a121	0.5219899
108	0x3ec0d2b6	0.3766076
109	0xbe804c6e	-0.2505831
110	0xbd7c5873	-0.06160779
111	0xbf056011	-0.5209971
112	0x3e9bf341	0.30459026
113	0xbeba3282	-0.3636666
114	0x3f161a34	0.5863373
115	0xbf0fc6e2	-0.56162846
116	0x3e794abf	0.2434492
117	0xbe5dfde7	-0.21678887
118	0xbe9147ba	-0.28375036
119	0x3e056013	0.1302493
120	0xbe90548a	-0.28189498
121	0xbe7ce49d	-0.24696584
122	0xbf15340c	-0.5828254
123	0x3d97ec8f	0.07418167
124	0x3f0e3d86	0.5556263
125	0x3ec31042	0.3809834
126	0x3cc6c2b2	0.02426276
127	0x3e12019f	0.14258431
128	0xbe7ae775	-0.24502356
129	0xbe9eb14b	-0.3099464
130	0xbe63f018	-0.22259557
131	0x3e313be3	0.17308001
132	0x3d06ff89	0.03295854
133	0xbea00530	-0.31253958
134	0x3ccba31b	0.024858048
135	0xbe4c33d5	-0.19941647
136	0xbe76f1fb	-0.24115746
137	0xbe90be36	-0.2827012
138	0xbd5dc933	-0.054146957
139	0x3e914afd	0.28377524
140	0xbecb6867	-0.3972809
141	0x3e1f607a	0.15564147
142	0xbef02397	-0.46902153
143	0xbf0a4eca	-0.5402647
144	0x3ea432e9	0.3207009
145	0x3db7b312	0.08969702
146	0x3eb580c2	0.35449797
147	0xbe0c2bfc	-0.13688654
148	0xbe6248dd	-0.22098108
149	0xbe066d8c	-0.13127726
150	0xbe25f201	-0.16205598
151	0x3e60f917	0.2197002
152	0x3c9c4907	0.01907779
153	0x3ef9f939	0.48822954
154	0xbe1fd8df	-0.15610074
155	0xbd919b4d	-0.071096994
156	0x3d07b90b	0.033135455
157	0x3ea506ae	0.3223166
158	0xbe9285df	-0.2861776
159	0x3dee4b59	0.11635465
160	0x3dbc355f	0.09189867
161	0x3e093406	0.13398752
162	0xbece1226	-0.4024822
163	0x3eea8db9	0.4581125
164	0x3eb8b27c	0.36073673
165	0xbda0daf9	-0.07854266
166	0xbc8ab423	-0.016931599
167	0xbee68d99	-0.45029905
168	0x3eb9f411	0.3631902
169	0x3e3219a2	0.1739259
170	0xbe78b799	-0.24288787
171	0xbec53fba	-0.38525182
172	0xbc0604a6	-0.008179819
173	0x3dd05880	0.1017313
174	0xbdbbfcd4	-0.091790825
175	0xbed8b82e	-0.42328018
176	0x3e755715	0.23959
177	0x3f0cdbef	0.5502309
178	0x3da87113	0.08224692
179	0xbd8eaa3b	-0.06966063
180	0x3e1c7c64	0.15281826
181	0x3c1319a4	0.008978281
182	0xbd5a3275	-0.053270776
183	0xbe5f2b5e	-0.21793887
184	0x3e4a5f3f	0.19762896
185	0xbf26dc50	-0.6517992
186	0xbe933390	-0.28750277
187	0xbcc20891	-0.023685725
188	0xbe7dd5ec	-0.24788636
189	0xbe9c1a2e	-0.30488724
190	0x3b6392de	0.003472499
191	0xbda7778a	-0.08177097
192	0xbdc2066d	-0.09473882
193	0x3d303599	0.043019865
194	0x3ec2e146	0.38062495
195	0x3e7262df	0.23670529
196	0xbcca854b	-0.024721762
197	0x3ec402c4	0.3828336
198	0xbe92ed93	-0.2869688
199	0xbd9d2458	-0.07672948
200	0x3e91f3e5	0.2850639
201	0x3d83e827	0.06440764
202	0x3cd36aea	0.025807817
203	0x3d6206c1	0.055182222
204	0x3e9cac0f	0.3060002
205	0xbe26107e	-0.16217229
206	0xbe4f7130	-0.20258021
207	0x3e8075a7	0.25089762
208	0xbdb342d7	-0.08752983
209	0xbdbcc57d	-0.092173554
210	0x3e94e13a	0.29078084
211	0x3ebf5834	0.3737198
212	0xbe2bac19	-0.16764869
213	0xbef0c4f4	-0.47025263
214	0xbea32a6a	-0.31868297
215	0x3c16c7c6	0.009202903
216	0x3eab89a3	0.33503446
217	0xbdf3373c	-0.118757695
218	0x3d982c3b	0.07430311
219	0x3ebcc077	0.3686559
220	0xbe089483	-0.13337903
221	0x3eb0486f	0.34430262
222	0x3e7996fd	0.24374004
223	0x3f0d720f	0.55252165
224	0x3e1182eb	0.14210097
225	0x3f42313d	0.7585638
226	0x3eeb25ea	0.45927364
227	0x3ea870a1	0.3289843
228	0xbee865c4	-0.4539014
229	0xbd5ef696	-0.05443438
230	0x3e81bc19	0.2533882
231	0x3eef30a4	0.46716797
232	0x3c92c65c	0.01791685
233	0xbe27ffb0	-0.16406131
234	0xbd2ec76e	-0.04267066
235	0x3eb3d676	0.35124558
236	0x3f00b34e	0.502736
237	0xbee84076	-0.4536168
238	0x3e43b128	0.19110548
239	0xbe920c77	-0.28525135
240	0x3ea16c2b	0.31527838
241	0x3d739fde	0.059478633
242	0xbe7be1e2	-0.24597886
243	0xbe074c12	-0.13212612
244	0xbcdf5165	-0.027260492
245	0x3ed72a6e	0.4202456
246	0x3e4a1e74	0.1973818
247	0xbead3217	-0.33827278
248	0x3e024e99	0.12725295
249	0x3e08e1c8	0.13367379
250	0x3e12f024	0.14349419
251	0x3e43ac1b	0.19108622
252	0x3e418664	0.18898922
253	0x3e8fc4d2	0.2807985
254	0xbdde2c04	-0.10848239
255	0xbea9c6ec	-0.33159578

conv1.fc_self.weight f4 [16, 72]
0	0xbec1c786	-0.37847537
1	0xbe8df86d	-0.27728596
2	0xbd892c7e	-0.06697939
3	0xbecc1ebd	-0.398672
4	0xbd613923	-0.05498613
5	0xbe94cde4	-0.29063332
6	0xbe08e215	-0.13367493
7	0xbec71446	-0.38882655
8	0xbe1e6802	-0.15469363
9	0xbda9edbe	-0.08297299
10	0xbdd953cb	-0.10611685
11	0xbda0abfc	-0.078453034
12	0x3d85ec60	0.065392256
13	0xbedfb18e	-0.4369015
14	0x3c9038c2	0.01760519
15	0xbedd28f6	-0.43195313
16	0xbeeb594d	-0.4596657
17	0x3db8b30c	0.090185255
18	0xbec8b68b	-0.3920177
19	0xbc3a658e	-0.011376752
20	0xbe16e0a0	-0.14734125
21	0xbe76c984	-0.2410031
22	0xbe63c893	-0.22244482
23	0x3e24784a	0.16061512
24	0x3e2c40ed	0.16821642
25	0xbedfb009	-0.43688992
26	0xbba92be3	-0.0051627024
27	0xbe3b786b	-0.18307655
28	0xbe8ed795	-0.2789885
29	0xbe62ad8c	-0.22136515
30	0xbeb7e9f3	-0.35920677
31	0x3e1bca9d	0.1521401
32	0x3e42be18	0.19017828
33	0x3e102115	0.1407512
34	0xbd176627	-0.036962654
35	0xbeabd377	-0.33559772
36	0x3def0fe6	0.11672954
37	0x3de4e764	0.11176947
38	0x3b6d69c1	0.0036226364
39	0xbe33b627	-0.17549954
40	0x3cd7e802	0.026355747
41	0x3e48ee57	0.1962217
42	0x3e2477ca	0.16061321
43	0xbd8c308f	-0.06845199
44	0xbecb0a5e	-0.39656347
45	0xbe643183	-0.22284512
46	0xbe90e0b6	-0.2829644
47	0x3d18fbc5	0.03734948
48	0x3d944469	0.07239611
49	0xbecc271a	-0.39873582
50	0xbefa64d2	-0.48905045
51	0xbd4452cb	-0.04793052
52	0x3e083aa6	0.13303623
53	0xbe8150f6	-0.2525708
54	0xbe94a14e	-0.29029316
55	0xbdc658a0	-0.096848726
56	0xbe7d01be	-0.24707696
57	0xbca084cd	-0.019594574
58	0xbda4eeda	-0.0805337
59	0xbef2540c	-0.47329748
60	0xbeab5fa5	-0.33471408
61	0xbe71ae46	-0.23601636
62	0x3dd75afc	0.10515401
63	0xbea6bae1	-0.32564452
64	0xbe91a4b8	-0.28445983
65	0xbdf014c0	-0.11722708
66	0xbed81be4	-0.4220878
67	0xbe05878a	-0.13039985
68	0xbdfaed4f	-0.12252294
69	0xbefb583f	-0.49090764
70	0xbebd025a	-0.36915857
71	0xbd8838b8	-0.06651443
72	0xbd444685	-0.047918815
73	0x3e115f5f	0.14196537
74	0x3e55ebd4	0.20890743
75	0x3e99a1a4	0.30006135
76	0xbdb7b93c	-0.089708775
77	0x3d162b0c	0.036662146
78	0x3f023ec2	0.5087701
79	0xbe84e25e	-0.25953954
80	0xbe7f153e	-0.24910447
81	0xbdb4832d	-0.08814082
82	0xbe7e8ee0	-0.2485919
83	0xbe1f497e	-0.15555379
84	0x3e02972b	0.12752979
85	0x3d8703c5	0.06592516
86	0x3e891345	0.26772514
87	0x3ed9243c	0.42410457
88	0xbe6b21fd	-0.22962184
89	0x3d6ae171	0.057343904
90	0x3d49d7c8	0.04927805
91	0x3e1084ce	0.14113161
92	0x3e23444c	0.15944022
93	0x3d7ad048	0.06123379
94	0x3e938292	0.28810555
95	0x3ed63665	0.41838375
96	0xbeb1295a	-0.3460186
97	0x3e564508	0.20924771
98	0x3eb0a109	0.3449786
99	0x3e09d330	0.13459468
100	0x3e13e742	0.14443687
101	0x3e968ebf	0.29405782
102	0xbeb36bd7	-0.35043213
103	0x3ef6ebc6	0.48226756
104	0xbe4491e1	-0.19196273
105	0x3e5eda65	0.21762998
106	0x3ee9e1b1	0.4568
107	0x3e064b69	0.13114704
108	0x3e69c078	0.22827327
109	0x3eac1459	0.33609274
110	0x3e509271	0.20368363
111	0xbd9a520e	-0.07535182
112	0x3d799ec1	0.060942415
113	0xbd0e192b	-0.03469197
114	0x3cb3301f	0.021873532
115	0xbd73911a	-0.05946455
116	0x3e077afd	0.1323051
117	0x3e820aaa	0.2539876
118	0xbd6b70db	-0.057480674
119	0x3eebf2f6	0.46083802
120	0x3ed1e8ba	0.4099787
121	0xbe2a7ec6	-0.16649923
122	0x3c0a5477	0.00844299
123	0xbe2733e3	-0.16328387
124	0xbe0e3f08	-0.13891232
125	0x3e01cf54	0.12676746
126	0x3f00b0c0	0.502697
127	0xbd8f0c06	-0.06984715
128	0xbe48c9c3	-0.19608216
129	0x3e881c1b	0.26583943
130	0xbe643249	-0.22284807
131	0x3dd39c15	0.10332505
132	0x3ebe4f5b	0.37169918
133	0xbe034931	-0.12820889
134	0x3eadac34	0.33920443
135	0x3ee04b02	0.43807226
136	0x3e764d51	0.24052931
137	0xbdf51946	-0.11967711
138	0x3d7a7263	0.061144244
139	0xbdb7bbf0	-0.08971393
140	0x3ea3584f	0.31903312
141	0x3f216d99	0.6305786
142	0x3c152009	0.009101876
143	0xbdc0ae45	-0.09408239
144	0x3f0b162c	0.54330707
145	0x3e523921	0.20529605
146	0x3eef8c58	0.4678676
147	0x3e6c63a2	0.23084882
148	0x3dcb0ab6	0.09914152
149	0x3ca19789	0.019725578
150	0x3dd532ee	0.10410105
151	0x3e97affb	0.2962645
152	0x3f01e5f6	0.5074152
153	0x3d1e1c0b	0.038600963
154	0x3e38606b	0.1800553
155	0x3e1a38c2	0.15060714
156	0x3e911f6d	0.28344288
157	0x3ed4bc66	0.41549987
158	0x3eccc711	0.39995626
159	0xbd75e111	-0.060029093
160	0x3ee291b7	0.44251797
161	0x3cf6facf	0.030148892
162	0xbdd4c121	-0.10388399
163	0xbdd92455	-0.10602633
164	0xbe255a17	-0.16147648
165	0x3e27c128	0.16382277
166	0x3ed15246	0.40883082
167	0xbba33731	-0.0049809446
168	0x3d51b937	0.051202025
169	0x3e68e968	0.22745287
170	0x3ea05451	0.31314328
171	0x3f04f72e	0.51939666
172	0xbe042b3c	-0.12907118
173	0x3d82b6b5	0.06382505
174	0x3ed5d5d8	0.41764712
175	0x3ef622b3	0.48073348
176	0x3dee531e	0.11636947
177	0x3d9aceda	0.07558985
178	0x3ed055b0	0.40690374
179	0xbe8d441e	-0.27591032
180	0x3f1f636b	0.62261075
181	0xbe63ad43	-0.22234063
182	0x3e073db8	0.13207138
183	0xbc487ccd	-0.012236786
184	0xbdb93af1	-0.09044445
185	0xbd17c488	-0.03705266
186	0x3f017b1e	0.50578487
187	0xbdaebb2a	-0.085317925
188	0x3e095c50	0.1341412
189	0x3e2b0ca1	0.16704036
190	0xbd8246de	-0.06361173
191	0x3d2feb26	0.042948864
192	0x3ef6a8d7	0.4817569
193	0x3e74388e	0.23849699
194	0x3ea84f46	0.3287298
195	0x3e8aa638	0.2707994
196	0xbd501d17	-0.050808992
197	0x3eae5da6	0.34055823
198	0xbb3d2f9f	-0.0028867496
199	0xbb078022	-0.0020675738
200	0x3e9d1192	0.30677468
201	0xbdbe6b3a	-0.092977956
202	0x3dadb011	0.084808476
203	0xbcd7e042	-0.026352052
204	0x3e97a950	0.29621363
205	0x3d251650	0.040304482
206	0xbe6d0138	-0.23144996
207	0xbe7a376f	-0.24435209
208	0x3da5a68d	0.08088408
209	0x3f024be1	0.5089703
210	0xbd974c9a	-0.073876575
211	0x3f213826	0.629763
212	0xbdbcc896	-0.09217946
213	0xbc2f9c59	-0.0107184285
214	0xbe707138	-0.2348069
215	0x3ea3a80b	0.31964144
216	0x3f141591	0.5784541
217	0x3e87e731	0.26543573
218	0x3f113a95	0.56730014
219	0x3e874637	0.26420757
220	0x3f1782d5	0.5918401
221	0x3eb1128b	0.3458446
222	0xbd2fc336	-0.042910777
223	0x3ee58502	0.4482804
224	0x3e11afcc	0.14227217
225	0x3efb64c6	0.49100322
226	0x3e533658	0.20626199
227	0x3de3b9db	0.111194335
228	0xbd669f0b	-0.05630402
229	0x3e1df782	0.15426448
230	0x3ec56401	0.3855286
231	0xbdef6853	-0.1168982
232	0x3e8ef746	0.2792303
233	0xbe74e4e3	-0.23915438
234	0x3e109dd8	0.14122713
235	0x3e61f20d	0.22064991
236	0x3c96f920	0.018429339
237	0x3de3c313	0.11121192
238	0xbe1f3bc3	-0.15550141
239	0x3e8b9b12	0.27266747
240	0x3ec17b8f	0.3778958
241	0xbe35fd98	-0.1777252
242	0x3e41d296	0.18927988
243	0xbc45364e	-0.012036873
244	0xbb96bce5	-0.0046001547
245	0x3f09d245	0.5383647
246	0x3e8a4bef	0.27011058
247	0xbe6022c0	-0.21888256
248	0x3e691525	0.22761972
249	0x3eea3ac4	0.4574796
250	0x3e839909	0.25702694
251	0x3e91934d	0.28432694
252	0x3e13699c	0.14395756
253	0x3e9307c4	0.28716862
254	0xbd9e6814	-0.07734695
255	0x3e9190f9	0.28430918

conv1.fc_self.bias f4 [16]
0	0xbe222116	-0.15832934
1	0x3eb8b2bb	0.3607386
2	0x3e466af6	0.1937674
3	0x3d89f89e	0.06736873
4	0x3e57cfdd	0.21075387
5	0x3e3c7646	0.18404493
6	0x3e30653a	0.17226115
7	0xbd37da53	-0.044885945
8	0x3e8c1572	0.2736011
9	0x3e883adb	0.26607403
10	0x3d8832e6	0.06650333
11	0x3d08ad38	0.03336832
12	0x3ec9ec1d	0.39437953
13	0x3e086c54	0.13322574
14	0x3e7b7f1b	0.24560206
15	0xbe2ba960	-0.1676383

conv2.fc_neigh.weight f4 [16, 16]
0	0xbf25a6fe	-0.64707935
1	0xbf1c3057	-0.6101126
2	0x3eb54314	0.3540274
3	0xbd849e32	-0.06475486
4	0x3e0de003	0.13854985
5	0x3f21ae12	0.63156235
6	0x3d95967c	0.07304093
7	0xbe500f65	-0.20318373
8	0xbec7ee2b	-0.39048895
9	0x3e20fef9	0.15722264
10	0xbdc88821	-0.097915895
11	0xbec4eed7	-0.3846347
12	0x3ede9658	0.43474078
13	0xbe94926a	-0.29017955
14	0x3e95a216	0.29225224
15	0xbe908e72	-0.28233677
16	0x3f0825e0	0.5318279
17	0xbe9f8eba	-0.3116358
18	0x3e017c27	0.12645017
19	0xbd8f21ad	-0.06988845
20	0xbe8e7ecb	-0.2783111
21	0xbd4a724b	-0.049425405
22	0xbe75c1a2	-0.23999646
23	0xbe6f4e81	-0.2336979
24	0xbecc3770	-0.39886045
25	0x3e79cd66	0.2439476
26	0x3eef8f6b	0.46789107
27	0xbeb51f71	-0.3537555
28	0x3f280c08	0.6564336
29	0x3ee96a56	0.4558894
30	0xbe28104e	-0.1641247
31	0x3ed092dd	0.40737048
32	0x3ee3d275	0.44496503
33	0x3f19c304	0.60063195
34	0xbdc7bfc2	-0.09753372
35	0xbf220569	-0.63289505
36	0xbf2d747a	-0.67755854
37	0xbe8d9862	-0.2765532
38	0x3ecb33be	0.39687914
39	0x3efa1e6d	0.48851338
40	0x3ec14225	0.37745777
41	0x3ecccdb5	0.40000692
42	0xbedeee0a	-0.43540984
43	0xbe9da265	-0.3078796
44	0x3e17de31	0.14830853
45	0x3e9211f2	0.28529316
46	0x3f344d64	0.7043059
47	0xbe89a5b1	-0.26884225
48	0x3ed34472	0.41263157
49	0xbed6cc56	-0.4195277
50	0x3f0668ed	0.52503854
51	0x3e573ae5	0.2101856
52	0x3e2d49af	0.1692264
53	0x3e5f6fcf	0.21819995
54	0xbf152bac	-0.58269763
55	0x3d68a1a3	0.056794774
56	0x3ec8aaab	0.3919271
57	0xbf09349a	-0.5359589
58	0xbee99d0e	-0.45627636
59	0x3d15e93b	0.03659938
60	0x3e799160	0.24371862
61	0xbdf5ecf7	-0.12008088
62	0xbd493ca4	-0.049130097
63	0xbea999ec	-0.33125246
64	0xbc98f599	-0.018671798
65	0x3d7889ca	0.06067828
66	0xbefe1ee4	-0.49632943
67	0xbef3e059	-0.476321
68	0xbc875be4	-0.016523309
69	0xbeef7664	-0.46770012
70	0xbe16a109	-0.14709868
71	0xbef41b06	-0.47676867
72	0xbc3338db	-0.010938848
73	0xbeceef10	-0.40416765
74	0xbef0ceca	-0.47032768
75	0xbf109e4e	-0.56491554
76	0xbe8e2bec	-0.27767885
77	0x3f079afd	0.5297087
78	0xbed89f99	-0.42309263
79	0x3f049a59	0.51798016
80	0x3e291ed9	0.16515674
81	0x3ea33c6a	0.3188203
82	0x3ee1867c	0.44047916
83	0x3f1b2715	0.6060651
84	0x3d8c354e	0.068461046
85	0xbf06333f	-0.52421945
86	0xbf07ff81	-0.53124243
87	0x3f246ea5	0.6423133
88	0x3ef23d6f	0.47312495
89	0xbf0ed02a	-0.55786383
90	0x3e06fb75	0.1318186
91	0xbee7ac87	-0.45248815
92	0x3e9e78be	0.30951494
93	0xbe7deae3	-0.24796633
94	0xbf8482d6	-1.0352428
95	0x3e124999	0.14285888
96	0xbe8a58cf	-0.2702088
97	0xbd77eb0a	-0.060526885
98	0x3f1671ac	0.587672
99	0x3f24964d	0.6429184
100	0xbed12d47	-0.40854856
101	0x3f18dcbf	0.5971183
102	0xb94ced46	-0.00019543347
103	0xbf06334d	-0.5242203
104	0x3f60af1a	0.87767184
105	0x3f528294	0.82230496
106	0xbf56bd5c	-0.8388269
107	0x3ec5b503	0.38614663
108	0x3f4617a5	0.7737983
109	0x3d434195	0.047669966
110	0xbeb25abe	-0.34834856
111	0xbdfa735e	-0.12229036
112	0xbf05b382	-0.5222703
113	0xbf53745c	-0.82599425
114	0x3e42dc63	0.19029383
115	0x3dfc5ff4	0.12322989
116	0xbecb83b9	-0.39748934
117	0x3ed722d9	0.42018774
118	0x3ee97858	0.45599627
119	0x3e127667	0.1430298
120	0xbe256bf1	-0.16154458
121	0xbef05cce	-0.46945804
122	0x3ea12bf5	0.3147885
123	0xbe8c8047	-0.27441618
124	0x3eae5da1	0.34055808
125	0xbdb006e0	-0.08595061
126	0x3e4246b8	0.1897229
127	0x3e74611e	0.23865172
128	0xbed044ea	-0.40677577
129	0x3a93c3a2	0.0011273513
130	0xbeb2cb29	-0.34920624
131	0xbecac5c4	-0.39604008
132	0x3f365b4e	0.7123307
133	0xbef264d7	-0.4734256
134	0xbf11a7ba	-0.56896555
135	0x3e33a5aa	0.17543665
136	0x3f023056	0.50855005
137	0xbf01d1ba	-0.5071064
138	0x3f141984	0.57851434
139	0xbc97f2e3	-0.018548435
140	0x3e4dae9a	0.20086136
141	0x3f29e237	0.663608
142	0xbf32e44e	-0.69879615
143	0xbe2b798f	-0.1674559
144	0x3f3340c9	0.7002073
145	0x3ec0756f	0.37589595
146	0xbedff5f2	-0.4374233
147	0xbf104ad1	-0.5636416
148	0xbe35e6a4	-0.17763764
149	0xbf094694	-0.5362332
150	0xbeb401f4	-0.3515774
151	0x3f091a29	0.5355554
152	0xbf1f6729	-0.62266785
153	0xbf0a6554	-0.54060864
154	0x3ec862d5	0.39137903
155	0xbeec1faa	-0.46117908
156	0xbf5de23b	-0.86673325
157	0x3f066a0d	0.5250557
158	0x3ed8dbaf	0.42355105
159	0x3d8500de	0.06494306
160	0x3e928b4d	0.28621903
161	0xbe33848a	-0.17531028
162	0xbf235eb4	-0.6381638
163	0xbf063323	-0.5242178
164	0x3db4250f	0.08796131
165	0x3e315ab9	0.17319764
166	0xbe4011c2	-0.18756774
167	0x3e431965	0.19052656
168	0x3e900c1c	0.2813424
169	0x3d940d62	0.07229115
170	0x3e74507d	0.23858829
171	0xbe962a92	-0.29329354
172	0x3f23f6a6	0.6404823
173	0xbf132a35	-0.5748628
174	0xbe13b893	-0.14425878
175	0x3e194e3b	0.14971249
176	0xbd806526	-0.062692925
177	0xbe19cc80	-0.15019417
178	0xbf075515	-0.528642
179	0xbf25f55c	-0.64827514
180	0xbf0618cb	-0.5238158
181	0x3e73dfaa	0.2381579
182	0xbe22e750	-0.15908551
183	0xbe687441	-0.22700597
184	0x3e802c4d	0.250338
185	0xbdb9e3c4	-0.09076646
186	0x3eb5925a	0.3546322
187	0x3f41412e	0.7549008
188	0x3cb583a7	0.022157503
189	0xbed13b16	-0.40865391
190	0x3c3db8a2	0.011579664
191	0xbe57f02b	-0.2108771
192	0x3d313a8d	0.04326873
193	0x3eb599aa	0.354688
194	0xbe2d7b80	-0.16941643
195	0x3e3914cd	0.18074341
196	0xbe00a5f5	-0.12563308
197	0xbf11b0aa	-0.5691019
198	0xbf08a51d	-0.5337694
199	0x3d9a02c3	0.07520058
200	0xbf2d8386	-0.67778814
201	0x3e784924	0.24246651
202	0xbce58d5f	-0.028021513
203	0xbd3b3f0b	-0.04571442
204	0x3c5fccb2	0.013659643
205	0x3cf649fd	0.030064577
206	0xbd1d9930	-0.03847617
207	0x3e6cb879	0.23117246
208	0xbeffae2f	-0.4993758
209	0xbdc504cb	-0.09620055
210	0x3de3ef39	0.111296125
211	0x3f011f4f	0.504384
212	0xbea625c5	-0.3245069
213	0x3e2c8545	0.16847713
214	0xbf45c0ed	-0.77247506
215	0x3e88aab5	0.2669274
216	0xbeb2ef28	-0.34948087
217	0x3e0478d3	0.12936716
218	0xbdcf7094	-0.101288944
219	0x3e0ffafd	0.14060588
220	0xbf3a9069	-0.728766
221	0x3edc3fb8	0.43017364
222	0xbf946d67	-1.1595887
223	0xbee3087e	-0.44342417
224	0xbe506a2c	-0.20353001
225	0xbe5c8991	-0.21536852
226	0xbefab73f	-0.4896793
227	0x3d9fe02b	0.078064285
228	0x3cb8ef16	0.022574943
229	0x3e49326e	0.19648144
230	0x3dfc3db1	0.12316454
231	0x3e938633	0.28813323
232	0xbda61c8d	-0.081109144
233	0x3e2329f2	0.1593397
234	0xbdcf6d8e	-0.10128318
235	0x3eea46d8	0.45757174
236	0x3f50d3e7	0.8157334
237	0x3f0be9f4	0.5465386
238	0xbc9b5339	-0.018960582
239	0x3f06353d	0.52424985
240	0x3e4c6611	0.1996081
241	0x3e3ec813	0.1863101
242	0x3eef4701	0.4673386
243	0x3d116e0a	0.035505332
244	0x3f05a371	0.52202517
245	0xbf3f91f5	-0.7483209
246	0xbe1f97fa	-0.15585318
247	0x3e48b93b	0.1960191
248	0x3dbb0e31	0.09133566
249	0xbf3c1fa8	-0.73485804
250	0x3ee6e7ff	0.45098874
251	0xbeb57951	-0.3544412
252	0x3e4f8548	0.20265687
253	0xbe4e3a18	-0.20139349
254	0x3eb1a6e3	0.34697637
255	0x3e9b1000	0.30285645

conv2.fc_self.weight f4 [16, 16]
0	0x3e8e35ed	0.27775517
1	0xbeb63c26	-0.35592765
2	0xbe46b326	-0.19404277
3	0x3f2580f2	0.6464988
4	0x3ebf5ed5	0.3737704
5	0xbe3c5925	-0.18393381
6	0xbe2b430c	-0.16724795
7	0xbf13a4c6	-0.576733
8	0xbedacd8c	-0.42734945
9	0xbdbab3bf	-0.09116315
10	0xbb8bc13a	-0.0042649778
11	0xbdb1f489	-0.086892195
12	0xbef4cba7	-0.47811624
13	0xbec55dc6	-0.38548106
14	0xbd454a47	-0.04816654
15	0xbddbab7f	-0.1072607
16	0xbe2f084c	-0.17093009
17	0xbe999864	-0.29999077
18	0xbecacde4	-0.39610207
19	0x3cbaf7ad	0.02282318
20	0xbed29b36	-0.41134042
21	0xbe0348e1	-0.1282077
22	0x3f1c2541	0.60994345
23	0xbf216a19	-0.6305252
24	0x3f114737	0.5674929
25	0x3f3def8f	0.7419366
26	0xbca6c2fd	-0.02035665
27	0x3e91d60f	0.28483626
28	0xbe7dc86d	-0.24783488
29	0xbe7f5c96	-0.24937662
30	0xbe5e13c5	-0.21687229
31	0x3d47a445	0.048740644
32	0x3e368f60	0.1782813
33	0xbf484b3b	-0.7823979
34	0x3ea63069	0.3245881
35	0x3f254fe3	0.6457502
36	0x3edee900	0.4353714
37	0x3e88e957	0.26740524
38	0xbe943c4d	-0.28952256
39	0x3e909bff	0.28244016
40	0xbf2de7d1	-0.6793185
41	0x3c91eb7f	0.017812489
42	0xbd2cec14	-0.04221733
43	0x3eb83e03	0.3598481
44	0xbf240d62	-0.6408292
45	0xbf15d985	-0.58535033
46	0xbe1a74f7	-0.15083681
47	0xbee6abe1	-0.45053008
48	0x3f0585e0	0.521574
49	0xbee9872b	-0.45610937
50	0x3f055f76	0.52098787
51	0x3f1969a6	0.5992683
52	0x3d56aca2	0.05241073
53	0x3e9d5534	0.30729067
54	0xbf0d2537	-0.5513491
55	0xbe7ac526	-0.24489269
56	0x3e7e7318	0.24848592
57	0xbf306b38	-0.689136
58	0x3eb72615	0.35771242
59	0x3e9113c4	0.28335392
60	0xbf0e0e43	-0.5549051
61	0x3e3713f6	0.17878708
62	0xbe6ff5a1	-0.23433544
63	0xbd5a20ed	-0.053254057
64	0x3d036298	0.03207645
65	0x3e67733b	0.2260255
66	0xbe904feb	-0.28185973
67	0x3dbe2426	0.092842385
68	0xbeb7b94f	-0.35883567
69	0xbed1cf12	-0.40978295
70	0x3ca4e0eb	0.02012678
71	0xbe034a74	-0.1282137
72	0x3eb7563b	0.35807976
73	0x3e27da76	0.1639193
74	0xbec46066	-0.38354796
75	0x3f18c1f9	0.5967098
76	0x3f310686	0.6915058
77	0x3ed99bbe	0.42501634
78	0x3e8a551c	0.27018058
79	0x3ee8eef2	0.454948
80	0xbea33b3f	-0.3188114
81	0x3d1a0773	0.03760476
82	0x3f129a35	0.5726655
83	0xbeade612	-0.33964592
84	0xbeb827d5	-0.3596789
85	0x3e0b85d8	0.13625276
86	0x3f4058e1	0.7513562
87	0xbefcfb28	-0.49410367
88	0x3effa634	0.4993149
89	0x3f0e69f4	0.5563042
90	0x3ed83e46	0.4223501
91	0x3eaabfdc	0.33349502
92	0x3f48db43	0.78459567
93	0x3f4a883b	0.7911412
94	0x3d8d9c89	0.06914622
95	0x3d0cfaca	0.03441886
96	0x3e207e1b	0.15673105
97	0xbf2066fa	-0.6265713
98	0xbd396a30	-0.045267284
99	0xbee49265	-0.4464294
100	0xbd929b59	-0.071585365
101	0x3f117317	0.5681624
102	0xbf4b0628	-0.7930627
103	0x3e2aea5e	0.16690966
104	0xbd5adcb5	-0.05343314
105	0x3ec0443a	0.37552053
106	0xbf81321e	-1.009342
107	0x3e9cf679	0.30656794
108	0xbf029bf1	-0.510192
109	0xbec9210f	-0.39283034
110	0xbee8db15	-0.45479646
111	0x3ed1819b	0.40919194
112	0xbf06a5c3	-0.5259668
113	0xbdefd488	-0.11710459
114	0x3e34848c	0.17628688
115	0x3e173d5d	0.14769502
116	0xbe20a5a5	-0.15688188
117	0x3ed3d993	0.41376933
118	0xbf05d000	-0.5227051
119	0xbeed9e88	-0.46410012
120	0xbe2a5dfe	-0.16637418
121	0xbd8a0e24	-0.06740978
122	0x3d8f6455	0.07001559
123	0xbd77b5c1	-0.06047607
124	0x3e3e0980	0.18558311
125	0x3e860ddf	0.26182458
126	0xbf3365b9	-0.7007709
127	0xbf182a48	-0.59439516
128	0xbddbb44c	-0.10727748
129	0x3ec9ccbe	0.39414018
130	0xbf022a9e	-0.5084628
131	0xbd084c44	-0.033275858
132	0xbf1af7de	-0.60534465
133	0x3ef05c59	0.46945456
134	0x3f53255c	0.8247888
135	0xbeda8ead	-0.42686978
136	0x3e986ee6	0.2977211
137	0x3f4cd2de	0.8000926
138	0x3f180e65	0.59396964
139	0x3ded455d	0.115854956
140	0xbeaacc7a	-0.33359128
141	0x3f1d97a0	0.61559486
142	0x39e4f470	0.0004366967
143	0xbe736a6a	-0.23771062
144	0x3e4631e1	0.19354965
145	0xbd49848f	-0.049198683
146	0xbedb160f	-0.42790267
147	0x3d8c5823	0.06852748
148	0xbd403f11	-0.046935145
149	0xbf599b11	-0.8500224
150	0x3ecb860d	0.3975071
151	0x3e4cd173	0.20001774
152	0xbe92058c	-0.28519857
153	0xbe43788d	-0.19088955
154	0xbe2091a5	-0.15680559
155	0x3e8cadfe	0.27476496
156	0x3f16b2e7	0.58866733
157	0x3f239190	0.63893986
158	0x3f4e3100	0.8054352
159	0xbee9cc1d	-0.4566354
160	0xbdbded0c	-0.09273729
161	0x3ed4a799	0.41534117
162	0x3f140534	0.5782044
163	0x3e6e069f	0.23244713
164	0x3e64b4cb	0.22334592
165	0xbe57525b	-0.2102751
166	0xbd4404b7	-0.04785606
167	0xbe42c25a	-0.19019452
168	0xbf2b8389	-0.6699758
169	0xbe8f5b2b	-0.27999243
170	0x3f028360	0.5098171
171	0xbe82a5de	-0.25517172
172	0xbf23ab18	-0.63932943
173	0x3e987347	0.2977545
174	0xbeac7528	-0.33683133
175	0xbef679d4	-0.48139822
176	0xbe5d92ed	-0.21638079
177	0xbf81822b	-1.0117849
178	0xbee1afab	-0.44079337
179	0x3dfd2878	0.123612344
180	0xbd7b464b	-0.061346333
181	0xbf205d49	-0.6264234
182	0xbeae4906	-0.34040087
183	0xbf298de7	-0.6623215
184	0x3e154a20	0.14579058
185	0xbeb60cc8	-0.35556626
186	0x3ded5ab6	0.11589567
187	0xbd44409a	-0.04791317
188	0xbf53ca1e	-0.8273028
189	0xbbdc82d4	-0.006729463
190	0xbec15932	-0.37763363
191	0xbe8f3f3d	-0.27977934
192	0xbcd62bae	-0.026143875
193	0xbd68f038	-0.056869715
194	0xbf5b7d8a	-0.8573843
195	0xbe7e1d38	-0.24815834
196	0xbeed3a02	-0.4633332
197	0xbf1d7ca7	-0.6151833
198	0xbe615f05	-0.22008903
199	0xbd8e4275	-0.069462694
200	0x3e4ad99f	0.19809578
201	0x3e48a90c	0.19595736
202	0x3efbf915	0.49213472
203	0x3f17df8e	0.5932549
204	0xbe3b5963	-0.18295817
205	0x3e917fa0	0.28417683
206	0xbeb2ef08	-0.3494799
207	0xbdf74c75	-0.1207513
208	0xbd1a8da8	-0.03773275
209	0x3f8a794e	1.0818269
210	0xbd88e493	-0.06684222
211	0x3f396cdb	0.72431725
212	0x3f8378e4	1.0271268
213	0x3f417fbf	0.7558555
214	0xbe87e923	-0.26545057
215	0xbece091f	-0.40241334
216	0xbe04f81c	-0.12985271
217	0xbe7d78bb	-0.24753086
218	0x3e362aeb	0.1778981
219	0x3ec78bdf	0.389739
220	0x3db9c83a	0.09071393
221	0x3f0623fc	0.5239866
222	0x3f9e5000	1.2368164
223	0xbdfe7421	-0.124244936
224	0x3f00fd74	0.5038674
225	0xbf24f072	-0.6442939
226	0x3f116bbc	0.56805015
227	0x3ed0dbe0	0.4079275
228	0xbeae0f67	-0.33996126
229	0xbef19d4a	-0.47190315
230	0x3f28f249	0.659947
231	0x3f090b17	0.53532547
232	0x3f3d2778	0.7388835
233	0x3eebc2c2	0.46047026
234	0xbe1d226f	-0.15345167
235	0x3e8cf996	0.2753417
236	0xbeab9237	-0.3350999
237	0xbef98f23	-0.48742017
238	0xbf583d2c	-0.8446834
239	0x3d91757b	0.07102486
240	0xbea48091	-0.32129338
241	0x3f71a66e	0.94394577
242	0x3f1ec9f1	0.6202689
243	0xbedf6946	-0.43635005
244	0xbc908ce2	-0.017645303
245	0x3e887797	0.2665374
246	0x3f5cb7db	0.8621804
247	0x3ed6d29f	0.41957566
248	0x3e4bc752	0.19900253
249	0xbd9d33f3	-0.07675924
250	0x3f2e1d64	0.68013597
251	0x3ec2a67d	0.38017645
252	0x3e41dc5e	0.1893172
253	0xbd1bb0dd	-0.038010467
254	0x3e9f9334	0.31166995
255	0x3d0df17d	0.03465413

conv2.fc_self.bias f4 [16]
0	0xbe108084	-0.14111525
1	0xbeaabaa1	-0.33345512
2	0xbe94503d	-0.28967467
3	0xbe64f413	-0.22358732
4	0x3d8bb624	0.0682185
5	0x3b5db582	0.003383011
6	0xbee2c69d	-0.44292155
7	0xbe4ab9c9	-0.19797434
8	0x3e0a990f	0.1353495
9	0xbc865564	-0.01639814
10	0xbe78b3a9	-0.24287285
11	0xbeb5c40d	-0.35501137
12	0xbdfdd1e3	-0.12393548
13	0x3eff3ed5	0.49852625
14	0xbd73571b	-0.059409242
15	0x3e1a0af4	0.15043241

decoder.W1.weight f4 [16, 32]
0	0xbd935583	-0.071940444
1	0x3e47de41	0.19518377
2	0xbdbf9b43	-0.09355786
3	0xbec2feae	-0.3808493
4	0xbd21f650	-0.039541543
5	0x3d58eb6c	0.05295889
6	0x3deaff2e	0.11474453
7	0xbe1f7ebc	-0.15575689
8	0xbd90a0f7	-0.070619516
9	0xbceca607	-0.028887762
10	0xbe84b3d5	-0.2591845
11	0x3e02fac2	0.12790969
12	0x3d9c3453	0.076271676
13	0xbe218b01	-0.15775682
14	0xbd689bff	-0.056789394
15	0xbc10a5b1	-0.008828566
16	0xbe9892e3	-0.29799566
17	0xbdcf93fe	-0.10135649
18	0xbdb78934	-0.08961716
19	0xbe4745d6	-0.19460234
20	0xbd454211	-0.04815871
21	0x3e95d7bc	0.29266155
22	0xbead3efc	-0.33837116
23	0x3d2eb5d9	0.042653892
24	0x3eb4430c	0.35207403
25	0x3e750e22	0.23931172
26	0x3e4842b0	0.1955669
27	0xbdb8f0f3	-0.090303324
28	0x3d8197a6	0.06327753
29	0xbd3cf64b	-0.04613332
30	0xbe708e48	-0.23491776
31	0x3ea42f44	0.3206731
32	0xbd9ee81a	-0.077591136
33	0x3e00c70f	0.12575935
34	0xbe9f2a15	-0.31086794
35	0xbdf1e180	-0.11810589
36	0x3cb5f7ec	0.022212945
37	0x3ebfa43f	0.37429997
38	0x3e2658e6	0.1624485
39	0x3cb0c3c3	0.021577721
40	0x3e37d0be	0.17950723
41	0xbe1ab9b8	-0.15109909
42	0xbe90b65a	-0.28264123
43	0xbe5f8ec0	-0.21831799
44	0xbe638ba7	-0.22221242
45	0x3d4c9d8e	0.049954943
46	0x3e90bf3d	0.28270903
47	0x3e25074c	0.16116065
48	0xbcc3e123	-0.023911064
49	0x3c6bb690	0.014386788
50	0xbe88b442	-0.26700026
51	0xbd97b351	-0.07407249
52	0x3e312446	0.17298993
53	0x3eada136	0.33912057
54	0xbea16814	-0.31524718
55	0xbe41c67b	-0.1892337
56	0x3dbdd787	0.09269624
57	0x3da41352	0.080114976
58	0x3d53f595	0.051747877
59	0xbd1b9e09	-0.03799251
60	0x3dc56407	0.09638219
61	0xbd8905f2	-0.06690587
62	0x3e036570	0.12831664
63	0x3e824ee7	0.25450823
64	0x3e56dfbb	0.20983784
65	0x3e6ca12a	0.23108354
66	0xbbe45b58	-0.006968897
67	0x3dbbe622	0.09174754
68	0x3e24336b	0.1603524
69	0xbcfdac0c	-0.030965827
70	0x3d0924f1	0.033482496
71	0xbe667c27	-0.22508298
72	0x3d9219b5	0.071338095
73	0x3d4197a7	0.047263768
74	0x3ac3f185	0.0014949298
75	0x3d312c11	0.043254916
76	0x3e6ca641	0.23110296
77	0x3d2a3d61	0.04156244
78	0xbd0a50a6	-0.03376832
79	0x3d7b49d5	0.06134971
80	0x3cbb17be	0.02283847
81	0x3deaeda6	0.11471109
82	0x3dd0f3bb	0.10202738
83	0xbdb93852	-0.09043945
84	0x3e4c7e81	0.19970132
85	0xbe15a7d6	-0.14614806
86	0x3e488aa4	0.19584137
87	0xbd6b6670	-0.05747074
88	0x3e3e8aa0	0.18607569
89	0x3d864aff	0.06557273
90	0x3e4db52b	0.20088641
91	0xbcdd90f8	-0.027046666
92	0x3e499afa	0.19688025
93	0xbe15f6eb	-0.14644973
94	0x3de628a2	0.11238219
95	0xbe0294a5	-0.12752016
96	0xbe3a6b38	-0.18204963
97	0x3e5f90a2	0.21832517
98	0xbe54e26e	-0.20789501
99	0xbeba6acd	-0.36409608
100	0x3e9443be	0.28957933
101	0xbd8d6fec	-0.06906113
102	0xbcb90bfe	-0.022588726
103	0xbd22092f	-0.03955954
104	0x3dc28c3c	0.09499404
105	0x3d71c910	0.05902964
106	0xbe94e654	-0.29081976
107	0x3e8028bc	0.25031078
108	0x3ed94a4f	0.42439505
109	0xbeecd31d	-0.46254817
110	0x3e45c633	0.19313888
111	0xbd5c5e5d	-0.05380093
112	0x3e87d134	0.26526797
113	0x3e744649	0.23854937
114	0xbeb4dbfb	-0.35324082
115	0x3d90f330	0.07077634
116	0xbeba5b70	-0.36397886
117	0x3e088e98	0.13335645
118	0x3ebd58a4	0.3698169
119	0x3e0d1192	0.13776234
120	0xbdd3a5b7	-0.10334342
121	0xbe491763	-0.19637828
122	0xbe267c6e	-0.16258404
123	0xbe2a2494	-0.16615516
124	0xbe328e21	-0.1743703
125	0x3dfc1f77	0.12310689
126	0x3dc8bb4a	0.098013476
127	0xbea25470	-0.31705046
128	0x3e21ec4d	0.15812798
129	0x3e105ff5	0.14099105
130	0xbe15dfca	-0.1463615
131	0x3d5ecf56	0.05439695
132	0xbd18883d	-0.037239302
133	0x3e842ddd	0.2581624
134	0x3e3ed854	0.1863721
135	0xbdd94c44	-0.1061025
136	0x3c886c71	0.016653271
137	0x3d681004	0.0566559
138	0xbe088496	-0.13331828
139	0xbdb40698	-0.0879032
140	0xbe3e42d5	-0.18580182
141	0x3e072273	0.13196735
142	0x3e1976c5	0.14986713
143	0x3dada446	0.08478598
144	0xbeda0946	-0.425852
145	0xbdb510af	-0.08841073
146	0xbd392e07	-0.04520991
147	0xbd2c8da8	-0.04212728
148	0x3ec70570	0.38871336
149	0x3e79bf7b	0.2438945
150	0xbede345d	-0.43399325
151	0x3c33c895	0.010973115
152	0x3e95c5cc	0.2925247
153	0x3e57dd30	0.2108047
154	0x3eaa6bc6	0.3328535
155	0x3e267a04	0.16257483
156	0x3de50731	0.11183012
157	0xbda4b63f	-0.08042573
158	0xbed39fcc	-0.41332853
159	0x3d34cbff	0.04413986
160	0x3e1a24f2	0.15053156
161	0xbe6716c8	-0.22567284
162	0x3e662d8c	0.22478312
163	0x3cd6a653	0.026202356
164	0xbd325ddb	-0.04354654
165	0x3e02cc2b	0.12773196
166	0x3dbc047c	0.09180543
167	0x3d1d9d47	0.03848007
168	0xbd98f72f	-0.074690215
169	0x3ded49f5	0.11586372
170	0x3dca6491	0.09882463
171	0xbe1fa61f	-0.15590714
172	0xbd9f56c2	-0.077802196
173	0x3e3dada8	0.18523276
174	0x3d8e8d9a	0.06960602
175	0x3e07bad4	0.13254863
176	0x3ddc7718	0.10764903
177	0x3e54b611	0.20772578
178	0x3dca5883	0.098801635
179	0x3d4665d7	0.048436966
180	0x3dcc1355	0.09964625
181	0x3e10e16a	0.14148489
182	0xbbe1723c	-0.006880073
183	0x3df7d34b	0.12100848
184	0x3cc54c90	0.02408436
185	0xbe0ed020	-0.13946581
186	0xbddede1e	-0.10882209
187	0x3d19b100	0.037522316
188	0xbdd86373	-0.105658434
189	0xbd957554	-0.07297769
190	0x3e4499a4	0.19199234
191	0xbdc1885d	-0.09449837
192	0xbe160d61	-0.14653541
193	0xbe3c0a36	-0.1836327
194	0xbe3bd58b	-0.18343179
195	0x3e229ea5	0.1588083
196	0xbd67f109	-0.056626353
197	0x3e49d16f	0.19708799
198	0x3da707ac	0.0815576
199	0x3e2c81fa	0.16846457
200	0x3c8365ae	0.016039696
201	0xbe48fe53	-0.19628267
202	0xbe3c5901	-0.18393327
203	0xbdad12ec	-0.08450875
204	0xbde32e17	-0.11092775
205	0x3e14a0b5	0.1451443
206	0x3e3a1964	0.18173748
207	0x3e28293f	0.16421984
208	0xbe02f0c3	-0.12787156
209	0xbe1cc640	-0.15310001
210	0xbd5af064	-0.05345191
211	0xbe2135fa	-0.15743247
212	0x3dfb9d59	0.12285871
213	0xbd6300b7	-0.055420604
214	0xbee9caad	-0.45662442
215	0xbe873331	-0.26406243
216	0x3ea55ddb	0.3229817
217	0x3e48360e	0.1955187
218	0x3dfa1b0c	0.1221219
219	0xbc90ecb7	-0.017691
220	0x3e861b15	0.26192537
221	0x3e23d13a	0.15997782
222	0xbec1c44c	-0.37845075
223	0x3e3dbe26	0.18529567
224	0x3e8627ff	0.2620239
225	0xbeaa2f38	-0.3323915
226	0x3ea49c7d	0.3215064
227	0x3e937a75	0.28804365
228	0xbe22fd9b	-0.15917055
229	0xbc863736	-0.016383749
230	0x3dca15b2	0.09867419
231	0x3ddec3dc	0.10877201
232	0xbe99beff	-0.3002853
233	0xbd4d5be2	-0.050136454
234	0x3c9b1873	0.018932557
235	0x3d8f0a95	0.0698444
236	0xbe3baa7e	-0.18326756
237	0x3eb887f9	0.3604124
238	0xbdb83dea	-0.08996184
239	0x3d22dc6d	0.039760996
240	0x3d8e4334	0.06946412
241	0xbdd4d68d	-0.10392485
242	0x3ed27493	0.41104564
243	0xbc837e7d	-0.016051525
244	0xbdc7d7ab	-0.09757932
245	0x3da23c4d	0.07921658
246	0x3da09132	0.07840194
247	0x3e0381bf	0.12842463
248	0x3cfdd0e2	0.030983392
249	0xbd265163	-0.04060496
250	0x3d93419a	0.07190247
251	0xbe0bde60	-0.13659048
252	0x3e147fd5	0.14501889
253	0x3d1c6fe8	0.03819266
254	0x3e3dc44b	0.18531911
255	0x3d77ad3d	0.060467947

decoder.W1.bias f4 [16]
0	0x3ea8c493	0.32962474
1	0x3e754550	0.23952222
2	0xbcaf03ef	-0.02136418
3	0x3b3d5028	0.0028886888
4	0x3e0d1c61	0.13780357
5	0xbdc10bff	-0.09426116
6	0x3da0d5a8	0.07853252
7	0xbe3cb5f0	-0.18428779
8	0xbe409fb6	-0.18810925
9	0x3badd658	0.005305093
10	0xbe10105e	-0.14068744
11	0x3d9ea2cc	0.07745895
12	0xbdde4627	-0.10853224
13	0x3c0788fc	0.008272406
14	0x3e42cd54	0.19023639
15	0x3ea6c91c	0.3257531

decoder.W2.weight f4 [1, 16]
0	0xbe7cb7b1	-0.24679448
1	0xbee5d14d	-0.44886246
2	0x3e31dae2	0.17368653
3	0xbee63ae4	-0.44966805
4	0xbe9f52eb	-0.3111795
5	0x3d58de4d	0.052946378
6	0xbe986224	-0.29762375
7	0x3e7cccc0	0.24687481
8	0x3cef8c26	0.029241633
9	0xbe9bf09d	-0.3045701
10	0xbbc7ffba	-0.006103483
11	0x3cbdb6ac	0.023158394
12	0x3e9d6af1	0.30745652
13	0xbdb1806d	-0.086670734
14	0xbe9d9215	-0.30775514
15	0xbeefdbe7	-0.4684746
